SEPT_TPS_Belgium.pt (torch, 321623 bytes, 5 tensors)

linear_relu_stack.0.weight f4 [256, 53]
00000000: da34 95be 00bc 6a39 a41d 6abf 1b11 8dbe
00000010: d468 84be ed80 22bd a651 77bf 102a 81bf
00000020: fe28 8ebf f282 98bf 924f 71bf 7b32 8fbf
00000030: 90e4 9bbf a8cc 8cbf 54db 95bf 2a00 43bf
00000040: bf03 84bf f5cc 5dbf cd64 7bbf fbd7 80bf
00000050: 5ecc 46bf 0781 82bf a27f d4be 457c 69bf
00000060: 7f52 79bf 80a2 61bf d424 81bf 2582 7bbf
00000070: 72db 68bf 6dbe 10bf 76c1 52bf 7658 4cbf
00000080: 2613 7bbf 3446 80bf 0a06 1dbf b916 7ebf
00000090: 8db0 f4be e209 28bf 9fcd 37bf 142c 78bf
000000a0: a352 81bf d3ea 26bf f9e3 4fbf f2eb 01be
000000b0: 6552 ef3d 0d58 903d 2bf4 413e 601f 14be
000000c0: 513b 69be 4c63 adbe d291 ab3e 9221 a13e
000000d0: 1712 fcbd 8fce d1be bf3e 5fbf 96de e7be
000000e0: ed2a 81bf ab24 c1be cb2d 45be 1f3f d7be
000000f0: 05a8 88bf 53f8 2dbf 8adf 44bf 112e 3abf
00000100: 7491 65bf 31d2 99bf 3309 8bbe 70f4 89be
00000110: 3ed4 05bf 16f8 53bf d0ec 12be 3000 2cbe
00000120: e2fc 37bf 3835 d5be 7dab 85bd 245a 1ebf
00000130: 2600 ff3d 9d94 48bf 2bf3 77be 4d55 5abf
00000140: f952 0ebf 06e0 e0bd a83f adbe 28c1 0dbf
00000150: fadd 2ebf ec20 4fbf b312 55bf 516d ae3c
00000160: d0b3 623e f4ad 7bbe 657f 453d 5af5 95be
00000170: 2de7 4fbf 4340 11bf 7a49 59bf 0523 a7bd
00000180: c23a 1dbf 34c6 f53d 5963 2f3e 645d cb3d
00000190: feb5 a6be 2a5a 36be 115c 85be ddae d7be
000001a0: 6a9a 4a3f f6bc d9bd 3cca 8abe 630d c33d
000001b0: 3146 4b3e 323c 20be f2ef 343e 3e9f 953e
000001c0: b439 3ebe 9f73 803d 2895 f2bd 4e79 99be
000001d0: 859c e73d 2e97 82be 8277 9abf d6ef 61bf
000001e0: a9fc 4dbf 82df 1bbf ee95 89bf cca9 50bf
000001f0: 1234 66bf e251 f1be 6c9c 88be 0d57 85be
00000200: 1c62 d73c 8a60 91be 68a5 35bf 47ac 93be
00000210: 0f81 10be ed03 26bf dbcf e2be 2d13 a73d
00000220: aab1 91be 2e79 c6be 9f03 81be 772e 48be
00000230: 9f4c 21be 6989 05bf 29bd dfbc a9e6 14bf
00000240: 57bb a2be b49d 1cbe 88ef d8bd 10cf 09bf
00000250: ce4e d9bd 1710 b2bd 233e 7cbd 3ae6 c93e
00000260: a596 bbbd a5b0 983e 4f71 25bf c672 223e
00000270: a876 b43c b97f 2b3f 216a d13d c483 1bbe
00000280: dd25 6a3d d5e5 0ebf d3c4 70be e3ed 613e
00000290: b073 03be 7f34 11bf 0160 07bf d43c 8fbf
000002a0: 8918 8ebf 9b44 4fbf 2396 0fbe 496d 81bd
000002b0: 6fba 26be 66ab 4a3e 2320 cd3e 741b 5bbd
000002c0: ee60 a9bd 3edc 01bf 55db b1be 5071 c7be
000002d0: 35c4 2bbe 4f40 0cbf dc4a c9be d933 2abf
000002e0: 8200 843e 7015 703e f656 f73d 9bee 6d3e
000002f0: 163c 0d3e 0b89 2a3d 37b9 3fbe d3db 9f3e
00000300: fa13 c83b eff4 2f3e c965 d03c dab6 983e
00000310: f2b3 ba3d 881d 2dbf 5eea 08bd d48b 5b3e
00000320: f311 e13e 0f60 ab3e 68d0 9cbe 3fcb 933e
00000330: 57bd a23e c55e 4c3e 1419 80bf fe9f 66be
00000340: a190 e3be 4f4b 1fbe e366 4b3f 7122 1f3e
00000350: b3ac 9cbd 9c0e eb3d 59e3 8dbe 19d9 adbe
00000360: e3e2 bfbd 7883 44be e1d2 80bf 8719 383d
00000370: 0697 abbe e5e4 22be c8f0 c3be 327f f1bd
00000380: 7ea0 febd 3cbb 4fbe 64e3 83bc 72cc 023e
00000390: cca8 883e cefe 97bf 2fba 32bf 316e e9be
000003a0: 4ec2 5ebe 80aa 13bf 6998 88bd 4e30 c6be
000003b0: dc1f 4a3e e759 b5bd ed62 9bbe 5d4d abbd
000003c0: da43 bcbb cec6 833d be0c f03d 2c49 a4be
000003d0: 40ae 92be 6dcc 543e f129 1bbe 0a51 b0be
000003e0: ee70 cbbd a779 b6bd 2ecc 7f3d 9648 05be
000003f0: 97fd e8bd e732 5d3e 0c9d 603e d172 b7be
-0.29141885 0.00022386014 -0.9145148 -0.27552113 -0.25861228 -0.039673734 -0.9660896 -1.0090961
-1.110626 -1.1914961 -0.9426204 -1.118728 -1.2179127 -1.0999956 -1.1707559 -0.76172125
-1.0313643 -0.86640865 -0.98200685 -1.0065912 -0.7765559 -1.0195626 -0.41503626 -0.91205245
-0.97391504 -0.8813858 -1.0089364 -0.9824546 -0.90959847 -0.56540567 -0.8232645 -0.7982248
-0.98076093 -1.0021424 -0.6133734 -0.9925342 -0.47790948 -0.6564008 -0.7179813 -0.9694226
-1.0103344 -0.65202063 -0.81207234 -0.12687662 0.116856374 0.07048044 0.18940799 -0.14465094
-0.22776534 -0.3386482 0.3350969 0.31470925 -0.12308138 -0.40977904 -0.8720512 -0.45287007
-1.0091225 -0.37723288 -0.1925575 -0.42040345 -1.0676275 -0.6795704 -0.76903594 -0.7272654
-0.8967507 -1.201727 -0.27155456 -0.26944304 -0.5227698 -0.82800424 -0.1434815 -0.16796947
-0.71870244 -0.41642165 -0.065268494 -0.61856294 0.124512 -0.78351766 -0.24213855 -0.8528641
-0.55595356 -0.10980229 -0.33837628 -0.5537286 -0.6830746 -0.8090961 -0.8323166 0.02129236
0.22138906 -0.24578077 0.048217196 -0.2928875 -0.8121212 -0.5673868 -0.8487774 -0.08160976
-0.6141778 0.12000695 0.17127742 0.09929922 -0.32560724 -0.17807832 -0.26046804 -0.42125598
0.7914187 -0.106317446 -0.27107418 0.09524038 0.19850995 -0.15647963 0.17669657 0.29223055
-0.185767 0.06272053 -0.118448555 -0.2997536 0.113091506 -0.25505966 -1.2067721 -0.88256586
-0.80463654 -0.6088792 -1.074888 -0.8150909 -0.89923203 -0.47132784 -0.2668184 -0.26042977
0.0262919 -0.28393966 -0.70955515 -0.28842375 -0.14111732 -0.6484974 -0.44299206 0.08157954
-0.2845586 -0.38764328 -0.25198075 -0.19548975 -0.15751885 -0.52162796 -0.027311878 -0.5816446
-0.31783554 -0.15294534 -0.10592562 -0.5383158 -0.10610734 -0.08694475 -0.061582696 0.3943346
-0.091595925 0.2982227 -0.6462602 0.15864095 0.022029236 0.66991764 0.102253206 -0.15186983
0.057165015 -0.55819446 -0.23512582 0.22063403 -0.128371 -0.5672073 -0.52880865 -1.1190438
-1.1101238 -0.8096406 -0.14022116 -0.063196726 -0.16282056 0.19791946 0.4006358 -0.05349298
-0.08270441 -0.5072669 -0.3473765 -0.38953638 -0.16774066 -0.5478563 -0.39314926 -0.66485363
0.25781637 0.23445678 0.12077133 0.23235552 0.13792452 0.0416346 -0.18722998 0.312224
0.006105897 0.17183279 0.02543916 0.29827005 0.09116353 -0.67623186 -0.033426635 0.21440059
0.43959007 0.33471724 -0.3062775 0.28866002 0.3178508 0.19958027 -1.0007653 -0.2252197
-0.4444628 -0.15556072 0.7945387 0.15540482 -0.07650127 0.11477396 -0.27712515 -0.33954695
-0.09369447 -0.19190776 -1.0064355 0.04494622 -0.3351366 -0.15907629 -0.3826964 -0.11791839
-0.12432955 -0.20286268 -0.01609964 0.12773302 0.26691282 -1.1874635 -0.69815344 -0.45591882
-0.21753809 -0.5768204 -0.06669695 -0.3870873 0.19738716 -0.08855038 -0.30348912 -0.08364365
-0.005745393 0.06434403 0.117211804 -0.32087076 -0.28648567 0.20781107 -0.15152718 -0.34436828
-0.09933649 -0.08909922 0.06245058 -0.1301597 -0.113764934 0.21601449 0.21934909 -0.35829785

linear_relu_stack.0.bias f4 [256]
00000000: de73 b03e 6613 d63e bce9 a9be 5aa7 08be
00000010: 2695 9bbe 8581 24bf a7b3 d2be a6a0 063e
00000020: 1655 843e 4b66 a5be c935 683e 3d44 70bf
00000030: c5e6 37be 3b28 bcbe 2d14 4ebe b15e 673e
00000040: 7ee0 7ebe 5d6c 0fbe dd2e 54bf fb55 703e
00000050: f8a8 f3bc 015c 313d 4542 73be 9cfc 99be
00000060: 9623 ebbe fa99 ddbd 3daa f1bd f791 82be
00000070: c6c1 0b3e 310e b0be 1a0b c5be 8897 1bbf
00000080: d5ac f8be ac03 26bf 15a2 41be 2f7f 873e
00000090: af76 aebe dae0 1abe df6a b43d b12c 0dbf
000000a0: eb88 bd3e 7ecb 8dbe ef88 e8be c9ee 553d
000000b0: d895 08be 0548 73be 8d6e 43be 296f 4d3e
000000c0: 44ee d53d 51b2 fd3c c07e 16bf 5a1b 833e
000000d0: 7120 5dbd f479 303e d49c 11bf 0e47 0f3e
000000e0: 320c 09bf a177 0ebe 1bf0 0c3f 5f73 28be
000000f0: be0b b13d e039 c3be 49b9 c1be 3bc0 aabe
00000100: c9ec 9ebe b24e 10be 1eb9 0abf 39ca f7be
00000110: 49bb e73d 1767 093f 3967 00bf d701 a8be
00000120: faae ef3d 678d 9abe f21e 99bd 87e8 2fbe
00000130: 051d b0be 3168 e2bd e5ae 5cbf 72a3 a5be
00000140: c3a9 12bd 48bf 25bf c4e4 c8be f128 0c3d
00000150: 531a e13b 95c4 733d a03e cfbe 33e2 bebe
00000160: 87a1 f3bd fefa 69bd 0b53 0b3d f2bc dcbe
00000170: ff52 eebd d61f 81be 1650 8f3e 25af b53e
00000180: 81cf 1bbf 4697 e7bd 023b d83d a0f4 b638
00000190: e0be 34be 9ae9 01bf 1995 14bf 0a07 03bf
000001a0: bfd0 cabe fd67 823e d189 a23e c332 a9bd
000001b0: c546 bf3e 344c d9be 1d2f b33b a981 aabe
000001c0: 78ba 3ebe ac31 50be 252a 563e 4e0c a6be
000001d0: e162 d7bd 461e d3bd c36e 2abf bcc6 75be
000001e0: 2b1b 47bf 21a3 0bbf 6936 a1be 973d b2bd
000001f0: ef4e afbe 970a 0f3d 589f d83d 614b ef3e
00000200: 7218 5bbf ff4d f6bc 999e c1be e052 53be
00000210: 46ab ddbe ee90 37be e0bc bcbe eb5e 1dbf
00000220: 12e4 963e 18ed 6fbd 8ffd 1bbf 545b f8be
00000230: 76e4 db3d b93c a23d cb22 7d3e d7b0 cd3e
00000240: 1f3a 32be dc09 acbe 67ef fabd 5771 08bf
00000250: 00c3 b23d 2b2e 983d 81e8 023c a318 a5be
00000260: 9211 163d 2f02 5abf 1ff2 19bd 1670 c0be
00000270: 37f3 9d3e 30b0 d9bd 7269 53bf 2946 b4be
00000280: 7d6d 85be ffa7 9dbe 132a ffbd 0792 9fbe
00000290: a22b 34bf f54b 823d ca3e a6bd 09ef f0be
000002a0: 0173 2bbf f2bd a9bd eb59 0a3e 41d2 a7be
000002b0: e5d7 fcbe be83 e1be 8250 4cbe 9653 f23e
000002c0: f1b0 1cbe 03a7 d6be ee74 24bf 29f6 c2be
000002d0: 39c0 14bf 0d5c 07bf aab5 343e bc08 913d
000002e0: a269 76bd a19f 14bf a32d 9dbc 9f6f 4f3e
000002f0: 9f5b 2d3f 7c40 fabe 3d47 5cbf 6321 32be
00000300: 3889 07bf 9186 853e 2e39 7d3e efa7 8dbe
00000310: e165 44bf ce5a 383d 46cd ea3e 06c7 37bf
00000320: 8104 a1bd 647f 51be 74a3 4abe 76e5 8cbe
00000330: 756b 33bf f407 bbbe a992 53bc 9a6a 13bf
00000340: b303 b6be ac54 c2be fd4c 7ebc 6e84 4c3e
00000350: b6d2 24bf df3b cfbe 9f42 893d f0bf 133e
00000360: 6112 74bd ff31 493d 5f11 f7be bb3b a03d
00000370: d500 5cbf 0bd8 5bbe 49fb bebd d4b7 84bd
00000380: db19 26bf 527c 813e 7e44 c8be 8daf d9be
00000390: 7bc4 38be 66ce 51bf d86b 23be d02a a9bd
000003a0: 5c4f 43bf 359e 4e3d f308 bebc 8a58 12bf
000003b0: f620 19bf 7839 aabe 3f8e 803e f678 9f3e
000003c0: d5a7 22be 9e8a a0bd 4c15 cdbe a53d 4abf
000003d0: 8d90 37bf 3fe9 ddbe 68f2 2bbf f35f 32bf
000003e0: f7b6 b6be 9d49 3abf 10c9 d93e 774a 853d
000003f0: ede2 82be a309 a7be 2a36 46be 69cb 73be
0.344634 0.41811675 -0.33186138 -0.1334509 -0.3038723 -0.6426013 -0.4115269 0.1314722
0.25846165 -0.32304606 0.22676767 -0.93854123 -0.17959125 -0.36749443 -0.20124884 0.22594716
-0.24890324 -0.14006181 -0.8288401 0.23470299 -0.029743657 0.043300632 -0.23755749 -0.30075538
-0.45925587 -0.10820384 -0.118000485 -0.25501987 0.13648137 -0.34385827 -0.38485032 -0.60778093
-0.4856936 -0.6484935 -0.18909486 0.2646422 -0.34074923 -0.15124837 0.088094465 -0.5514632
0.37018523 -0.27694315 -0.45416972 0.052229676 -0.13338411 -0.23757942 -0.1908514 0.20061935
0.10445836 0.030968817 -0.58787155 0.25606805 -0.053986017 0.17234021 -0.56879926 0.13991949
-0.53534234 -0.13912822 0.5505387 -0.1645026 0.08644818 -0.38130093 -0.37836674 -0.33349785
-0.31040028 -0.1409252 -0.54188716 -0.4839647 0.11315019 0.5367293 -0.50157505 -0.32813904
0.11703296 -0.30186006 -0.074766055 -0.17178546 -0.3439714 -0.11055029 -0.8620437 -0.3235126
-0.03580643 -0.64745 -0.39237034 0.034218732 0.006869593 0.059513647 -0.40477467 -0.3728195
-0.11896043 -0.05712413 0.034014743 -0.43112904 -0.11636924 -0.252196 0.27990788 0.35485187
-0.608635 -0.1130815 0.1055813 8.724001e-05 -0.17650938 -0.5074707 -0.58040005 -0.51182616
-0.39612386 0.25469962 0.3174577 -0.08261635 0.3735868 -0.4244095 0.005468263 -0.33302048
-0.1862582 -0.20331448 0.20914514 -0.32431263 -0.105169065 -0.103085086 -0.6657526 -0.24001592
-0.7777583 -0.5454579 -0.31486824 -0.087031536 -0.3423991 0.03492221 0.105772674 0.46737197
-0.85584176 -0.030066488 -0.37816313 -0.20637083 -0.43294734 -0.1792638 -0.3686285 -0.6147296
0.2947088 -0.05857572 -0.60933775 -0.48507178 0.10736935 0.07921738 0.24720304 0.4017398
-0.17404984 -0.33601272 -0.122526936 -0.5329794 0.087285995 0.07430681 0.007990004 -0.3224536
0.03663785 -0.8515958 -0.03758442 -0.37585515 0.3084962 -0.10629308 -0.8258277 -0.35209778
-0.26060095 -0.30792233 -0.12459197 -0.31166098 -0.7037908 0.06362144 -0.08117445 -0.4705737
-0.6697236 -0.08288182 0.13510863 -0.32777599 -0.49383464 -0.44045824 -0.19952586 0.47329396
-0.15301873 -0.41924295 -0.6424092 -0.3807843 -0.5810581 -0.52874833 0.17647424 0.07081744
-0.060159333 -0.58056074 -0.0191868 0.20257424 0.6771793 -0.48877323 -0.860462 -0.17395549
-0.52943754 0.2607923 0.24728844 -0.27667186 -0.76717955 0.045008473 0.45859736 -0.7178806
-0.07862187 -0.20458752 -0.19788915 -0.27518815 -0.7008584 -0.36529505 -0.0129133845 -0.57584536
-0.35549697 -0.37955225 -0.015521285 0.19972393 -0.6438402 -0.40475366 0.0670216 0.14428687
-0.05958784 0.049119946 -0.4825544 0.07823893 -0.8593877 -0.21469133 -0.093252726 -0.06480375
-0.648832 0.2529016 -0.39114755 -0.42516747 -0.18043701 -0.81955564 -0.15959108 -0.08260119
-0.7629297 0.050443847 -0.023197627 -0.5716635 -0.5981592 -0.3324697 0.25108525 0.31146973
-0.15884335 -0.07838939 -0.4005531 -0.7900031 -0.7170494 -0.43342015 -0.6716676 -0.69677657
-0.35686466 -0.72768575 0.4253621 0.06508344 -0.25563756 -0.3262454 -0.193566 -0.23808064

linear_relu_stack.3.weight f4 [256, 256]
00000000: 18cb f13f 7cd9 813f d5ad 623e e9aa 983e
00000010: 8e5b 543e 73c4 183e 5bf7 1f3e ab17 f93c
00000020: 4a07 593d 7041 a03e f94e aa3d bd05 ef3e
00000030: b3db 203c 5086 c13d cb37 d23e 5240 353d
00000040: 4519 3b3e 1066 8e3c 9915 163f 4c4c 943c
00000050: e62f e43d d6b1 a4bd 8369 eb3d 3646 403e
00000060: 5e27 423e 170a 383e 575a 603d f8b8 543e
00000070: 81f5 db3b 0533 8b3e 999d 623e 390f 703d
00000080: 2e2f 1d3d 2e5a 153e 2ecd 723e f310 a13d
00000090: a6cb 9abd aa21 d03d fcef 023e 4b73 773d
000000a0: 6f83 403e ea50 4f3d 1ecb 7c3c 6bb8 c33d
000000b0: d87e 813d d931 713d 55fa 153e 414d 433d
000000c0: e1a3 dc3d 9dff 1f3f c7a9 1f3e d3e1 5f3d
000000d0: 5c3e 7b3f 75d7 8a3c 34b1 673e a54f 98bd
000000e0: 8dc4 083f 66de 803d d7c5 99bc e75f b23d
000000f0: 1c56 58bd 74c6 953d 8514 c93d 8f9c 853d
00000100: 6c3c f03d 8c07 503d 7ac3 d33d 39e0 ec3d
00000110: d2e6 dd3c b830 e8bd 9c0f 993d 6a4d 893e
00000120: 7759 743e 2d01 a63e 1d77 993e 6454 a63d
00000130: fcd5 2e3d e4a0 353e 67ff a53e 5589 4e3e
00000140: 8fc4 ec3d 53d8 983d bf5e d53e 62c3 8b3f
00000150: c587 d83c 5d9c d93d 4bda 653e 3357 663e
00000160: 116c ed3d 00a3 4cbd 1756 163b f5ad a03d
00000170: 62eb 02bb 041e 9e3d c252 f93c 6371 a13c
00000180: 82ed 5f3e 8fe7 9e3c 67da 863c 0de6 333e
00000190: f6f2 493e 65b3 af3e 2bc2 0c3e a52f 8e3e
000001a0: 56d9 2b3e 8382 ff3d 3937 eb3f d879 423e
000001b0: b726 35bd 0e90 3c3e e7fd 193e c3c8 7a3e
000001c0: b954 9abb 9217 db3e afe9 e53e 8ce5 27bd
000001d0: eb1d fdbb 9210 5b3e 77f1 603e 004e 8b3e
000001e0: aaf1 f73e 388f 5c3e fb95 953d bbf8 3b3e
000001f0: 7b98 f23e ca8b ea3d e021 643e a9fc 273f
00000200: 819a e13e 3273 4c3d 1dbf c93d 442f 713e
00000210: 834a ac3d 3687 893f c2be f73d de84 963d
00000220: 5b84 a9bb 2f75 0ebe a143 c53e be39 d33e
00000230: 6921 3d3d a7a1 523d f00d 243e c36b dbbd
00000240: b769 e53d 6cc4 713e 69ef 863d b0bc 9a3d
00000250: 7844 c23d 337a 923d d8d9 3c3e 8cc7 963d
00000260: f6ee 06bd 716d af3e 73e0 913d f59c 3b3d
00000270: 33a0 273d 15e9 9f3e c9fa a03e 3a26 5b3d
00000280: 94d6 6d3d 44d8 2e3c 4878 983e 3dec 0c3f
00000290: 2372 9b3e 990d 173f 157b a23d d9b0 103d
000002a0: 6d9e b93e 05a1 e93d c026 413d 0c60 613e
000002b0: f449 283e 83aa 603e 3825 793d 75c4 a13d
000002c0: 97e3 2c3e 1c15 fe3d d5f2 cf3d c3ed c53d
000002d0: 7401 423e b881 e13d 230d 0c3e ea55 973d
000002e0: 1125 f13d 7d77 b03e e6d6 953f 6e50 373e
000002f0: 627a ff3f 3803 4c3e 4708 ef3e e74f 1e3e
00000300: 651d 993e d675 303e ba9d e03d 8454 143e
00000310: 46dc d03e 14af 153e 8ec8 e43d ea9e 033f
00000320: fb2b 2c3e 5b78 393e 7e78 fc3e 3f21 86bd
00000330: a475 4f3e b021 e63d 5f4a 153f 1b95 2a3e
00000340: fbee e43d d919 df3d a950 fc3d 6697 213d
00000350: d0ea d63d aa44 d83e 420b d8bc 344b da3c
00000360: bb07 633d 72d4 853d 7ca4 973d 435b 0fbd
00000370: ef31 e33e cd71 b43d 70ee fa3d 64c3 7c3b
00000380: 4a9f fc3d 2f1f dabd f8bb 933e 8a2b 4c3e
00000390: fece 3c3e 05f9 723e d459 423e 525b 053e
000003a0: cfbf f43e bd5e cf3d 578f 1c3e 9fdf 013e
000003b0: 4b42 fb3d 6b43 adbd b4be 973d 5b7d 7dbc
000003c0: e34a 723f 9d36 a23e 61a3 29bc 1a26 bf3e
000003d0: 69b3 6c3e 33be dd3d 1104 403e b185 ad3e
000003e0: 2eef 553e feb8 b73e d17c 00be 9fce 1d3e
000003f0: fa29 143e fc54 683e f8e3 2e3e 700d 893c
1.8890104 1.0144496 0.22136624 0.29817894 0.2073805 0.1491869 0.15621702 0.030406794
0.052985467 0.31299925 0.08315844 0.46684065 0.009818005 0.09449446 0.41058192 0.044250794
0.18271358 0.017382652 0.58626705 0.018102787 0.111419484 -0.08041732 0.11494734 0.18776783
0.1896033 0.17972599 0.054773655 0.20773685 0.006712616 0.27187362 0.22130431 0.058608267
0.038375072 0.14585182 0.23711082 0.07864561 -0.07558374 0.10162671 0.1278686 0.060412686
0.18800138 0.050614275 0.015429286 0.09556659 0.06323022 0.05888543 0.14646275 0.047681097
0.10773445 0.6249941 0.15592109 0.054658722 0.9814203 0.016948441 0.22626191 -0.07437066
0.5342491 0.06292419 -0.018771095 0.08709698 -0.052816495 0.073132426 0.09818367 0.06524002
0.117302746 0.050788447 0.103400186 0.115662046 0.027087603 -0.11337417 0.074736804 0.26816875
0.23862253 0.32422772 0.2997369 0.08121565 0.04268454 0.17737156 0.3242142 0.20169576
0.11560928 0.074631356 0.41673848 1.0919001 0.026431927 0.10625527 0.22446553 0.22494201
0.11592878 -0.049960136 0.0022939497 0.0784568 -0.0019976725 0.07720569 0.03043497 0.019707387
0.21867946 0.019397525 0.016461564 0.17568226 0.19721588 0.34316555 0.13745944 0.27770725
0.16782126 0.12476065 1.8376228 0.18991792 -0.044226374 0.18414328 0.15038262 0.24490647
-0.0047098068 0.4279142 0.4490485 -0.040990397 -0.0077245138 0.2139304 0.21967112 0.27207947
0.48426563 0.21539009 0.07303997 0.18356602 0.47381958 0.11452444 0.22278547 0.65619904
0.4406319 0.049914546 0.09850905 0.23553187 0.084126495 1.0744388 0.12096931 0.07349561
-0.0051732487 -0.1391189 0.3852816 0.4125499 0.04617444 0.051423695 0.16020942 -0.10713913
0.11201804 0.23610085 0.065886326 0.075555205 0.09485716 0.07152214 0.18442476 0.07362279
-0.032942735 0.34263185 0.071228884 0.045803983 0.040924262 0.31232515 0.31441334 0.053503253
0.058065966 0.010671679 0.29779267 0.5504797 0.30360517 0.59005123 0.07933632 0.035324905
0.36253682 0.11407665 0.047156096 0.22009295 0.16434461 0.21940045 0.06082651 0.07898799
0.16883694 0.1240637 0.101537384 0.0966449 0.18945867 0.1101107 0.13676886 0.07389434
0.11774648 0.34466162 1.1706207 0.17901775 1.9959223 0.19923103 0.46686003 0.15460168
0.2990524 0.17232451 0.10967584 0.14485365 0.40793055 0.14617568 0.11171065 0.5141436
0.16813652 0.18112318 0.49310678 -0.0654931 0.2025972 0.11236894 0.58316606 0.16658442
0.111783944 0.10893602 0.12320072 0.039451025 0.10494006 0.42239887 -0.026372556 0.026647188
0.055427294 0.06534661 0.0740442 -0.034999143 0.44374034 0.08810768 0.122525096 0.003856861
0.123350695 -0.10650479 0.28854346 0.19938484 0.18438336 0.23727806 0.18979579 0.13023117
0.47802588 0.10125492 0.15289055 0.12682961 0.12268504 -0.084601246 0.074094206 -0.015471782
0.9464552 0.31682292 -0.010353894 0.37333757 0.23115315 0.10827293 0.18751551 0.3389106
0.20892021 0.35883325 -0.12547614 0.15410851 0.14469138 0.22688669 0.1707915 0.01673004

linear_relu_stack.3.bias f4 [256]
00000000: aded 2740 b96c 173f 4ad9 68bf 0a0b adbd
00000010: 97d0 2a40 e5f3 8abf c7d8 2640 d491 a3bd
00000020: 0645 2640 109d 2fc0 8335 16bd 7873 dcbf
00000030: 3708 1a40 4643 2c40 fd45 2140 a568 2740
00000040: 3961 2940 2d44 2e40 748c 2540 4542 b4bf
00000050: 2787 653f 19af aa3e 95a2 2540 655d 2940
00000060: 912d 5f3f 9fae 2740 b44e fcbe 2ef1 bfbf
00000070: 8e5b 2540 ec5d 2540 6d9b 17be c351 cdbf
00000080: f590 2440 7cb2 c7bd d192 2640 0b45 2940
00000090: 572e c0bd ab22 2c40 4065 2e40 e8ba b73e
000000a0: 6f5e 2340 86e7 6e3f 6476 2440 9ab4 2740
000000b0: 5b27 2840 380b 2740 4982 e6bf 897f 35bf
000000c0: bb21 733f 8887 2940 714f 2940 6d5b 18bd
000000d0: 8e41 fd3e e0a9 2b40 b067 f0bd 30a0 2a40
000000e0: 3433 bebd cc49 2b40 e7fd 853f 0662 2a40
000000f0: ef6c d4bf 2152 2840 98a2 48be ec71 2b40
00000100: d3f5 2840 b159 2b40 7ed3 2c40 fabb 2540
00000110: 5285 85bd f0f3 2440 5448 babf 9398 2bbd
00000120: 34a0 2840 ffa8 f8bd 736e 2440 f7d9 2940
00000130: e3d0 0dbe dae2 2540 da31 9dbf 5a7d 80bf
00000140: ec97 2440 687c 2a40 a7a9 6b3f aa90 2940
00000150: 88b9 2540 2bac 2e40 0ada 2540 323b 2640
00000160: b046 b0bd ccad 6bbf 3ae2 2840 561d 2440
00000170: 4a33 92bd b42b 2c40 c9e3 dbbf 9811 703f
00000180: 3986 adbd c34a 31c0 e833 ffbf 7f0b 3abd
00000190: 957a 2b40 3f37 09bf 6827 cd3e 113e 0fc0
000001a0: bd27 2740 1540 8c3f 7626 e83e a776 76c0
000001b0: 2b12 2340 dc0b 50bd 95fd 61bf da6c edbf
000001c0: 8b85 cdbf d7d9 2840 373e 2c40 0d16 b8bd
000001d0: c95d 2640 01cf 2840 ca52 2d40 2832 2740
000001e0: d868 2940 c362 94bd e9ab 2240 4109 4abd
000001f0: 6603 c9bf afad 2e40 7417 2740 26cc 0f3f
00000200: 5595 32bf c71c 0f3f 8edd abbd fdfa 2b40
00000210: a737 2740 e91f 2640 694d b93e eba5 2440
00000220: 61fc 8ebc f02f 2140 4999 863f 23b2 2640
00000230: a8b8 2ebf b660 2540 b3e1 2a40 83ab 2640
00000240: c6e2 2a40 d47d 2640 bdd9 2940 c17c 2a40
00000250: b351 2440 7de9 2240 60d2 29bd 3aa3 b1bd
00000260: be38 f3bf e054 2440 4e92 2040 deab 2c40
00000270: 5399 47bd 87c3 2940 a60e a33e 6f2e fabd
00000280: 922a c33f 8c3a 2840 4a24 59bf 040c 2640
00000290: 8a90 773f a348 2540 551c d5bd 8fa3 2d40
000002a0: 32ae 1c40 944c bf3e df12 ecbf 36dc 36bf
000002b0: 7835 2a40 5aa8 673f d62e 81bd ff96 babd
000002c0: 1cce 2440 5a6c 2640 61df 2c40 96ad 2c40
000002d0: 1b36 0bc0 dccb 1ac0 1e35 2540 b3de 2c40
000002e0: a789 2340 f787 2640 a663 61c0 5bcc 2740
000002f0: 5c0d 623f 0327 d3bd 1d8e aebf 7180 613f
00000300: 4dce 2540 00de 2e40 7354 7d3e a825 2740
00000310: 6e8a 2c40 9ca5 2340 91dd 45bf 57ac 69bd
00000320: 8c51 41c0 6e4a c2bd f7a9 e2be 0485 2840
00000330: 75cb afbf ddb4 b6bd fe35 2840 c75a 2b40
00000340: f920 2640 e0eb 4fc0 b470 893f 9e43 5fbf
00000350: 1a57 2640 ee91 2940 9564 95bd 3231 7f3f
00000360: 198b ad3e 7d77 c3bd cc69 2640 7cba 2740
00000370: 332a c5bd 8ffe 06c0 d9b8 2940 b214 2640
00000380: baed 633f 33c3 2740 9af8 2b40 5b99 2c40
00000390: ac98 173f bcb8 2b40 b0d0 2740 ec9e 2740
000003a0: 2cca bdbf a681 2840 ab52 41c0 b5e8 2240
000003b0: 07ba 2a40 5329 ba3d 633e f03f 925b ebbd
000003c0: 0dee 2b40 3f93 2640 cad1 40bf 5959 a9bf
000003d0: 13f6 2540 aa8c 2740 5d94 853e 44b3 4d3f
000003e0: c2da 2a40 2bcf 2540 60d9 f3bf 3d6b 81bf
000003f0: ef4a 11be 6bda 2440 7c7f 2240 8bca b8be
2.6238816 0.5915027 -0.90956557 -0.08449371 2.6689813 -1.0855681 2.606981 -0.07986799
2.5979629 -2.7439613 -0.036672127 -1.7222738 2.4067514 2.691606 2.5198967 2.615762
2.646559 2.7229111 2.5866976 -1.4082724 0.8965935 0.33336714 2.5880482 2.6463253
0.87178904 2.620033 -0.49278796 -1.4995477 2.583713 2.5838575 -0.14805384 -1.6040577
2.5713475 -0.0975084 2.602711 2.644839 -0.093838386 2.689616 2.7249298 0.35884786
2.5526388 0.93322027 2.569726 2.620398 2.627402 2.6100597 -1.800851 -0.7089773
0.94973344 2.6488972 2.6454737 -0.037196565 0.49464077 2.6822433 -0.11738527 2.666027
-0.0928711 2.6763792 1.046811 2.6622329 -1.6595744 2.6300128 -0.19593275 2.6788282
2.640004 2.6773493 2.7004085 2.5895982 -0.065195695 2.5773888 -1.4553323 -0.041893553
2.634778 -0.121416084 2.5692413 2.6539285 -0.13849215 2.591971 -1.2280838 -1.0038254
2.5717726 2.6638432 0.92055744 2.6494546 2.589449 2.7292583 2.591433 2.597363
-0.086072326 -0.9206207 2.6388078 2.5642905 -0.07138689 2.6901674 -1.717889 0.93776846
-0.084728666 -2.770188 -1.9937716 -0.04542112 2.6793568 -0.53599924 0.40069127 -2.2381632
2.6118004 1.0957056 0.45341843 -3.850992 2.547984 -0.05079256 -0.8827756 -1.8548844
-1.6056379 2.638296 2.6912973 -0.08988581 2.5994742 2.6376345 2.708178 2.6124363
2.6470242 -0.072454 2.5417426 -0.04932523 -1.5704162 2.7293508 2.6108065 0.5617088
-0.6975911 0.55903286 -0.083918676 2.687194 2.6127717 2.5956976 0.36191872 2.5726268
-0.017454328 2.5185509 1.0515529 2.6046226 -0.68250513 2.5840278 2.6700256 2.6042182
2.6700912 2.60143 2.6539147 2.6638644 2.5674865 2.545501 -0.041460395 -0.08673711
-1.9001691 2.5676804 2.5089297 2.69799 -0.048730206 2.652559 0.31847113 -0.12215888
1.5247366 2.6285734 -0.84821 2.5944834 0.96704924 2.5825584 -0.104057945 2.7131078
2.448132 0.37363112 -1.8443259 -0.71429765 2.6595135 0.9049126 -0.06307761 -0.091108315
2.57508 2.6003633 2.701134 2.6980948 -2.1751773 -2.4186926 2.581367 2.7010925
2.5552766 2.6020486 -3.521707 2.6218479 0.88301635 -0.10310175 -1.363712 0.8808661
2.5907166 2.7322998 0.24739246 2.6116734 2.695949 2.556983 -0.7729121 -0.05704912
-3.0206022 -0.094868526 -0.44270298 2.6331186 -1.3733965 -0.08921216 2.6282954 2.6774156
2.5957625 -3.2487717 1.0737519 -0.8721255 2.5990663 2.6495318 -0.07294575 0.9968444
0.33895186 -0.09544275 2.6002073 2.620757 -0.096271895 -2.109287 2.6519072 2.5950131
0.89034617 2.621289 2.6870484 2.69686 0.59217334 2.6831503 2.6221123 2.6190748
-1.4827323 2.632913 -3.0206707 2.5454533 2.6676042 0.09089913 1.8769039 -0.11492075
2.6864045 2.6027372 -0.7532011 -1.3230392 2.5931442 2.6179605 0.26089755 0.8035166
2.669602 2.5907695 -1.9050713 -1.0110852 -0.14188741 2.5758312 2.539031 -0.36092028

linear_relu_stack.6.weight f4 [1, 256]
00000000: 2dce 8f3e e0b5 fcbf 7e2e 07c0 875f 433c
00000010: bbb4 893e f171 23c0 b91a 8e3e 243d 14bd
00000020: cf7c 903e 5405 d1bf 93e9 3f3c b0e7 15c0
00000030: 7ca9 e73e adea 8c3e 8c7f 9a3e d9e9 953e
00000040: 6e21 893e 8e62 8a3e 0ed6 9b3e 78de 2fc0
00000050: f15c 2ac0 069b 73bf 28a8 8e3e bfca 8b3e
00000060: 2a42 60c0 3c3f 8e3e 691f f0bf ebad 2bc0
00000070: 6ee6 8f3e 91fd 903e 012e dc3c 4c7f 3dc0
00000080: 91ef 943e 5b86 ffbc 95cf 933e 64ab 8e3e
00000090: a827 d2bc 9fbd 933e 5f83 8a3e 23b3 ffbf
000000a0: 28e1 933e 153b 4bc0 ada8 943e ed3c 943e
000000b0: b519 8b3e 984a 8c3e 0e49 40c0 f341 1ac0
000000c0: d53c e4bf 4dcc 923e 7316 913e 1520 9bbc
000000d0: 415a bcbf 732d 933e 6532 59bc 51ae 873e
000000e0: fd09 0abc 07f8 953e eef0 59c0 6f8a 873e
000000f0: c62e 13c0 330d 913e c557 e2bf 7f3c 893e
00000100: 74e3 903e e85b 893e c32b 923e 3ab4 8c3e
00000110: b6df cebc 8425 923e d76e 14c0 0748 b0bb
00000120: 98ba 883e c7e0 8cbc bbea 913e a66e 843e
00000130: 04c6 b3bb 576b 963e 8cca f1bf 99b3 cdbf
00000140: 1285 933e 24e2 933e 9a87 2ac0 1e41 973e
00000150: 828d 8f3e a717 8e3e a7f8 8e3e c9d8 983e
00000160: d7f5 133c c6a9 26c0 f0f5 933e 4432 8e3e
00000170: a7e8 cabc bd53 883e 0356 22c0 5997 b5bf
00000180: 4891 523c 22cd 00c0 6662 babf 7829 e83c
00000190: a195 903e 45fa 0ec0 fd2c 01c0 d5d0 6bc0
000001a0: 669c 8f3e 749a 16c0 d849 00c0 aef4 85c0
000001b0: b7e1 8c3e 410b bdbc 90d9 c4bf 1c38 33c0
000001c0: d42c 12c0 d512 913e 1a70 893e d6a8 7d3c
000001d0: f5ee a13e fb43 943e 9e6e 8d3e 0816 933e
000001e0: 0d38 923e 52f0 40bc af23 8b3e 7fff c2bc
000001f0: ca7a 59bf 1af0 963e 545f 933e 2648 e1bf
00000200: a913 06c0 fbee 38bf 50a2 7ebb 7595 8b3e
00000210: 7fc3 943e 4eda 943e c621 2cc0 e164 8c3e
00000220: cb2e ef3b a90d 8b3e 7118 1cc0 b2a0 983e
00000230: 20ea c7bf 4b5a 903e ed88 933e fe16 943e
00000240: aeb6 8b3e f5ae 8f3e 6963 8e3e 1776 883e
00000250: d1f2 883e cb6f 953e 1a6e e03c ab2a c03b
00000260: 3ba3 59c0 52c6 933e e0b9 933e 6c12 863e
00000270: af98 4fbc 22ce 8d3e e52b 2abf b6f5 633c
00000280: b7a2 a13e 8b12 973e 1529 84bf b115 953e
00000290: 736b d3bf bd61 973e 951e c83b 1580 8e3e
000002a0: 5af6 d93e 947e f6bf 8062 f6bf 1795 efbf
000002b0: c050 8e3e c426 86c0 52b8 60bb a563 933c
000002c0: b6c2 9a3e 4d47 933e da35 913e 4d69 983e
000002d0: 03f6 46c0 28ca b3bf ccb5 963e 8888 883e
000002e0: 40b2 933e 2c89 9d3e 0a79 56c0 7f61 8e3e
000002f0: f941 18c0 e6d6 97bc 8f67 0dc0 8cf6 26c0
00000300: b6ca 9a3e 1404 8e3e 63b4 11c0 7e22 963e
00000310: 8613 993e 01c3 873e 1d53 cebf 6e1d 0cbf
00000320: 65ba e7bf 4f81 45bc 44c2 10c0 ed46 8c3e
00000330: 1c7f 0cc0 bfe8 e83c f11c 873e 3fba 8a3e
00000340: 0237 8e3e 29a7 0bc0 1527 46c0 d65c 01c0
00000350: 8190 923e 96ee 913e fc8d 00bd 9ba9 10c0
00000360: b684 2ac0 3456 db3c d76f 903e 0aa9 973e
00000370: 7129 fb3c c5ec 2bc0 c4d1 8c3e 1778 933e
00000380: 0ec3 0bc0 8058 893e 1f99 883e afd8 8b3e
00000390: e5a0 28c0 a7bd 8d3e fe94 893e e6bc 903e
000003a0: d59c 3ec0 54b3 953e ffe4 44c0 8e2d 8b3e
000003b0: a54f 8d3e 40ec 39bf 67e7 5d3f 3e78 213d
000003c0: c777 8e3e 1436 993e 18c7 eebf a83e 16c0
000003d0: a325 973e 56f8 963e 976b 3cc0 397b d1bf
000003e0: 7e7f 963e 7126 993e 3ad9 2cc0 d16d 6540
000003f0: d767 28bf 481d 963e 5f2b 773e 9a55 13c0
0.28086987 -1.9743004 -2.1122127 0.011924631 0.268957 -2.5538294 0.27754763 -0.03619112
0.2822022 -1.6329751 0.011713403 -2.342266 0.45246494 0.27522793 0.30175436 0.29279974
0.26783317 0.27028316 0.30436748 -2.7479534 -2.6619227 -0.9515842 0.27862668 0.2730312
-3.5040383 0.2778262 -1.8759586 -2.68249 0.2810549 0.28318456 0.026877405 -2.9608946
0.29089025 -0.031191995 0.2886931 0.27865136 -0.025653675 0.28855607 0.27053353 -1.9976543
0.28882718 -3.175481 0.2903494 0.28952733 0.2716805 0.2740066 -3.004459 -2.4102752
-1.7831064 0.28671494 0.2833744 -0.018936196 -1.4715043 0.28745613 -0.013256644 0.2650018
-0.008425233 0.29290792 -3.4053302 0.26472804 -2.2997298 0.28330383 -1.7683035 0.26803967
0.28298533 0.2682793 0.28549013 0.27481252 -0.025253158 0.28544247 -2.3192651 -0.00537968
0.2670486 -0.017197026 0.28499398 0.25865668 -0.005486252 0.2937877 -1.8889937 -1.6070434
0.28812462 0.2888347 -2.6645265 0.29541868 0.2803765 0.2775242 0.27924082 0.29852894
0.009030781 -2.6041121 0.28898573 0.27772725 -0.02476914 0.26626387 -2.5364997 -1.4186813
0.012852021 -2.0125203 -1.4561279 0.028340086 0.28239158 -2.2340252 -2.0183709 -3.684621
0.2804901 -2.353177 -2.004507 -4.186118 0.27515957 -0.023076655 -1.5378895 -2.8002996
-2.283986 0.2833468 0.2684334 0.015482148 0.31627622 0.28958115 0.27623457 0.28727746
0.28558388 -0.011776047 0.27175662 -0.02380347 -0.84952986 0.29480058 0.28783667 -1.7600143
-2.09495 -0.72239655 -0.003885407 0.27262464 0.29055402 0.29072803 -2.6895614 0.27420714
0.0072992793 0.2715886 -2.4389918 0.298101 -1.5618324 0.28193888 0.28815404 0.28923792
0.2728781 0.2806317 0.2781022 0.26652595 0.26747754 0.29186854 0.02739625 0.0058644614
-3.4005878 0.28862244 0.2885275 0.2618593 -0.01267068 0.2769633 -0.6647323 0.0139135625
0.31569454 0.29506335 -1.0325037 0.29118112 -1.6517166 0.29566756 0.0061071613 0.27832094
0.42570764 -1.9257379 -1.924881 -1.8717374 0.27795982 -4.192232 -0.003428955 0.01799185
0.30226678 0.28765336 0.28361398 0.29767838 -3.1087654 -1.4046068 0.29435575 0.26666665
0.2884693 0.30768716 -3.3511376 0.2780876 -2.3790267 -0.018535089 -2.2094457 -2.608798
0.3023278 0.27737486 -2.276635 0.2932319 0.29897708 0.26515964 -1.6119114 -0.54732406
-1.8103758 -0.012054755 -2.261857 0.27397862 -2.1952581 0.028431294 0.26389268 0.2709522
0.27776343 -2.1820776 -3.0961354 -2.0212913 0.28625873 0.2850234 -0.031385407 -2.260352
-2.66435 0.026774503 0.28210327 0.29621154 0.03065941 -2.6863263 0.27503788 0.2880256
-2.1837802 0.26825333 0.26679322 0.27313754 -2.6348202 0.27683756 0.26871485 0.28269118
-2.9783223 0.2923838 -3.0764768 0.27183193 0.27599826 -0.72626114 0.86681217 0.039421313
0.27825758 0.2992407 -1.8654509 -2.3475742 0.29520902 0.2948634 -2.9440668 -1.636573
0.29394144 0.2991214 -2.7007585 3.5848277 -0.6578345 0.29319215 0.24137639 -2.3020997
