SEPT_TPS_Germany.pt (torch, 321623 bytes, 5 tensors)

linear_relu_stack.0.weight f4 [256, 53]
0	0x3db5fec4	0.08886483
1	0xbf06736e	-0.5251988
2	0x3cc6f081	0.024284603
3	0xbeb12e14	-0.34605467
4	0xbc035a2c	-0.008017104
5	0x3eed3066	0.46325988
6	0x3ea78e64	0.32725823
7	0xbe6ba2d5	-0.23011334
8	0xbfba0d26	-1.4535263
9	0xbf99d56e	-1.2018259
10	0xbea9f0b6	-0.3319146
11	0x3e543efb	0.2072715
12	0x3e9fdf54	0.31225073
13	0x3f00d97b	0.5033185
14	0x3f09d189	0.5383535
15	0x3e92f828	0.28704953
16	0x3e81cec1	0.25353053
17	0x3e9cb87a	0.30609494
18	0x3f3bfc13	0.7343151
19	0x3e681e65	0.22667845
20	0x3ecd2270	0.40065336
21	0x3ec0388a	0.37543136
22	0xbe625430	-0.22102427
23	0xbfaa492f	-1.3303584
24	0x3e6e9943	0.23300652
25	0xbf07d5be	-0.5306052
26	0x3e5e10a8	0.21686041
27	0x3d13bed7	0.03607067
28	0x3d46c378	0.048526257
29	0x3ea85405	0.32876602
30	0x3ddcfe01	0.10790635
31	0x3ea4502e	0.32092422
32	0xbfafc85a	-1.3733017
33	0xbf94999b	-1.1609377
34	0xbef12054	-0.47094977
35	0xbf311d12	-0.6918498
36	0xbd6861bf	-0.056733843
37	0x3e4a5fe8	0.19763148
38	0x3d382f6d	0.044967104
39	0xbd837d23	-0.06420352
40	0xbeb7458f	-0.35795256
41	0xbc7ee9b9	-0.0155586535
42	0x3e09e779	0.13467206
43	0xbf1848dc	-0.59486175
44	0xbe609423	-0.2193151
45	0xbe413137	-0.1886643
46	0x3dc1874b	0.09449633
47	0xbf2dc723	-0.67881984
48	0x3e9810f5	0.29700437
49	0xbfa3f1bf	-1.280815
50	0xbe41e348	-0.18934357
51	0x3f00bd17	0.5028853
52	0xbe559dfe	-0.2086105
53	0xbf42a7c0	-0.76037216
54	0xbd961987	-0.07329088
55	0xbfb6212f	-1.4228877
56	0xbedd3c6a	-0.43210155
57	0xbee4e378	-0.44704795
58	0xbee93682	-0.455494
59	0xbf8e29ab	-1.1106466
60	0xbdc3e514	-0.095651776
61	0xbfc3f919	-1.5310394
62	0xbee484db	-0.4463261
63	0xbef00579	-0.46879175
64	0xbf93db39	-1.1551276
65	0xbf0a815e	-0.5410365
66	0xbf6f316e	-0.934348
67	0xbecb9677	-0.39763233
68	0xbf6b5bf9	-0.91937214
69	0xbf08c1e4	-0.53420854
70	0xbf623656	-0.8836416
71	0xbf37a565	-0.7173675
72	0xbf9c7873	-1.2224258
73	0xbf67d7dd	-0.90563756
74	0xbf8f6888	-1.1203775
75	0xbf3cbb82	-0.73723614
76	0xbf2ae988	-0.6676259
77	0x3ac479e5	0.0014989941
78	0xbfa0e775	-1.2570635
79	0xbe8930bd	-0.26794997
80	0xbf0814f9	-0.53157
81	0xbf22d4f1	-0.6360617
82	0xbe23f342	-0.16010764
83	0xbf86b41d	-1.0523716
84	0xbe40a798	-0.18813932
85	0xbf9a48c4	-1.2053456
86	0x3e763e50	0.24047208
87	0xbdf49faa	-0.11944516
88	0xbf93ff82	-1.156235
89	0x3e3c4aa1	0.18387844
90	0xbf8a0232	-1.078192
91	0xbe2e360b	-0.17012803
92	0xbe59421d	-0.21216626
93	0xbf994f43	-1.1977314
94	0xbf38f86b	-0.72254056
95	0x3e7be799	0.24600066
96	0x3dbf6aa9	0.09346516
97	0xbe267f2a	-0.16259447
98	0xbdd385c3	-0.103282474
99	0x3e0afdce	0.13573381
100	0xbe75790b	-0.23971955
101	0xbd784e46	-0.060621522
102	0xbe83ec5b	-0.25766262
103	0x3eb007f7	0.34381077
104	0x3f46b621	0.77621657
105	0x3df9e631	0.12202109
106	0x3f0934ca	0.53596175
107	0x3e0ac3bf	0.13551234
108	0xbe9cced7	-0.30626556
109	0x3ebe18f1	0.37128404
110	0x3e6778e3	0.22604708
111	0x3dcd35cc	0.100200266
112	0xbfa72b35	-1.3060061
113	0xbf27bf3f	-0.65526193
114	0x3d3053e4	0.043048754
115	0x3ec61cba	0.38693792
116	0x3f108966	0.56459653
117	0x3ec07c9b	0.37595066
118	0x3e0e416b	0.13892142
119	0x3d9717a3	0.07377555
120	0xbd78b373	-0.06071801
121	0x3ebf24a9	0.37332657
122	0x3cd0e2d7	0.02549879
123	0xbea57b32	-0.32320553
124	0x3d08f070	0.033432424
125	0x3e4667e8	0.19375575
126	0x3f1bc40f	0.60846037
127	0x3cd2fb00	0.025754452
128	0x3e03ccb8	0.12871063
129	0x3ed54000	0.4165039
130	0x3e9a7b68	0.30172276
131	0x3dfc85ae	0.12330185
132	0x3ea84869	0.32867745
133	0x3db9d015	0.090728916
134	0x3eae760b	0.34074435
135	0x3f3cdb0e	0.7377175
136	0x3d9f20f7	0.077699594
137	0xbd40631e	-0.046969526
138	0xbf8b2b90	-1.0872669
139	0xbe39e66b	-0.18154304
140	0x3eb084c9	0.34476307
141	0x3d5afaa7	0.053461697
142	0xbe8dac13	-0.27670345
143	0xbf36fd44	-0.714802
144	0x3ebae4b7	0.3650262
145	0xbeeeda1b	-0.46650776
146	0xbcb44580	-0.022005796
147	0x3ea46e2a	0.32115299
148	0xbdd8e25b	-0.10590049
149	0xbf97d364	-1.1861386
150	0xbe35d37e	-0.17756459
151	0xbe3381ba	-0.17529956
152	0xbea1134a	-0.3146003
153	0xbef4a117	-0.47779152
154	0xbf54d72b	-0.8314082
155	0xbff9699a	-1.9485352
156	0x3f056227	0.52102894
157	0x3e05d006	0.13067636
158	0xbf3108fd	-0.6915434
159	0x3bab1dfd	0.0052220807
160	0x3e118417	0.14210545
161	0x3db03eed	0.08605752
162	0xbdf33941	-0.11876155
163	0x3ec9c3fc	0.39407337
164	0x3e81deea	0.25365382
165	0xbe940e0c	-0.28916967
166	0xbeb38400	-0.35061646
167	0xbe437f0c	-0.19091433
168	0xbe4e9e2e	-0.20177528
169	0x3e30d71a	0.17269555
170	0x3c199bf4	0.009375561
171	0xbe3862c3	-0.18006425
172	0x3e878e65	0.26475826
173	0xbeaef0b9	-0.34168032
174	0xbe68d5b1	-0.22737767
175	0xbea3cd4d	-0.3199257
176	0xbe88e11c	-0.26734245
177	0xbd85bae2	-0.06529786
178	0xbee69912	-0.45038658
179	0xbe8ba12c	-0.27271402
180	0x3de3d2cb	0.1112419
181	0xbef7b2b3	-0.48378524
182	0xbe1e9db6	-0.1548985
183	0x3cb3a462	0.02192897
184	0xbe0da823	-0.1383367
185	0xbef6a884	-0.48175442
186	0xbe8d437c	-0.2759055
187	0xbe293b25	-0.16526468
188	0x3daf0c7c	0.08547303
189	0x3c94e8c4	0.018177398
190	0xbda6da3e	-0.08147095
191	0xbe3298bd	-0.17441078
192	0xbdc54945	-0.09633116
193	0xbed77bc7	-0.42086622
194	0xbe91541e	-0.2838449
195	0xbe942c23	-0.28939924
196	0xbe9a31d1	-0.30116132
197	0xbe73416a	-0.23755422
198	0xbf05f7b8	-0.52331114
199	0x3b6e23c1	0.003633723
200	0xbdd84179	-0.10559363
201	0xbd8d8fce	-0.06912194
202	0xbf9ea5be	-1.239433
203	0xbca0a245	-0.019608626
204	0xbe55901c	-0.20855755
205	0x3e4d1862	0.20028833
206	0x3bfe4501	0.0077596908
207	0xbeb34d6a	-0.3502
208	0xbf52945c	-0.8225763
209	0x3ee5e122	0.44898325
210	0x3f01e30b	0.50737065
211	0x3d7b0b01	0.06128979
212	0xbedcd51f	-0.43131348
213	0xbeeb774c	-0.45989454
214	0xbf390963	-0.7227995
215	0xbebbaf62	-0.36657244
216	0xbf86a7d2	-1.0519965
217	0xbee28290	-0.44240236
218	0x3ed1c625	0.40971485
219	0xbe99933f	-0.29995152
220	0xbef45200	-0.4771881
221	0xbe421d09	-0.18956389
222	0xbf5d2e7f	-0.8639907
223	0xbf41f676	-0.75766695
224	0x3f046bd6	0.51727045
225	0x3f2de6bc	0.679302
226	0x3f60d00e	0.87817466
227	0x3f834a9d	1.0257145
228	0x3f7a8395	0.9785703
229	0x3ea6d372	0.32583195
230	0x3ecd98f2	0.4015575
231	0xbe64d0b5	-0.2234524
232	0x3e869164	0.262828
233	0x3eac03f3	0.33596763
234	0x3eca6eb3	0.39537582
235	0x3ef9011a	0.48633653
236	0x3d1b7a0d	0.037958194
237	0x3d2b1b5e	0.041774146
238	0x3f0efa6e	0.55850875
239	0xbed11d9c	-0.40842903
240	0xbce6cf2b	-0.028174957
241	0xbceb7591	-0.028742583
242	0x3ec63f35	0.38720098
243	0x3e4cc9f9	0.19998921
244	0x3e8354d0	0.25650644
245	0x3e85e97c	0.26154697
246	0x3e6dba32	0.23215559
247	0x3e8838de	0.26605886
248	0x3f154d14	0.58320737
249	0x3e61737c	0.2201671
250	0xbdca0632	-0.09864463
251	0x3d63f8dd	0.055657256
252	0x3e28a521	0.16469242
253	0xbc3bac2b	-0.011454622
254	0x3e58f74c	0.21188086
255	0xbe9ac3b3	-0.30227432

linear_relu_stack.0.bias f4 [256]
0	0xbe949f15	-0.2902762
1	0xbd7d2f05	-0.06181242
2	0xbeb3db5a	-0.3512829
3	0xbecb17e1	-0.39666656
4	0xbd7ce98c	-0.061746165
5	0xbda171e7	-0.07883053
6	0xbca25b4e	-0.019818928
7	0xbf17f71f	-0.5936145
8	0xbe074355	-0.13209279
9	0x3e21f5ed	0.1581647
10	0x3e5a1fc6	0.21301183
11	0xbe0375cf	-0.12837909
12	0xbe9340b2	-0.28760296
13	0x3e7a353c	0.2443437
14	0xbe1aba43	-0.15110116
15	0xbebcbc51	-0.36862424
16	0x3d260c99	0.040539358
17	0x3d3b9d29	0.045804176
18	0xbf1aeb0e	-0.60514915
19	0xbf33b35c	-0.70195556
20	0xbe317ee8	-0.17333567
21	0xbe7dd5db	-0.2478861
22	0xbf1b5913	-0.6068279
23	0xbdd1daba	-0.10246797
24	0x3c747bfa	0.014922136
25	0xbe970011	-0.29492238
26	0xbe78b028	-0.24285948
27	0xbe52ee24	-0.20598656
28	0xbea8d295	-0.3297316
29	0x3cb1896d	0.021671975
30	0x3e4d0568	0.20021594
31	0xbf1df684	-0.6170428
32	0xbdb2bff1	-0.08728016
33	0x3eccab4e	0.39974445
34	0x3cb13c73	0.02163527
35	0xbf5f50e6	-0.87232816
36	0x3e49b0f5	0.1969641
37	0xbe45a948	-0.19302857
38	0xbe83c33b	-0.25734887
39	0xbe855d79	-0.26047876
40	0xbeaaec68	-0.3338349
41	0x3c6cc383	0.0144509105
42	0xbe28d892	-0.16488865
43	0xbf09cb00	-0.5382538
44	0xbe402ff1	-0.18768288
45	0x3d51991e	0.051171415
46	0xbef6d2de	-0.48207754
47	0x3d7dc537	0.061955657
48	0xbceade3c	-0.028670423
49	0xbed0b11f	-0.40760133
50	0x3c8b6354	0.017015137
51	0xbf17c26c	-0.5928104
52	0x3e26a884	0.16275221
53	0x3e435740	0.19076252
54	0xbe547b7e	-0.20750234
55	0xbe8931fe	-0.26795954
56	0x3cb6c13a	0.022308934
57	0x3dbbaec3	0.091641925
58	0xbf03578b	-0.51305455
59	0xbeb2e48c	-0.34939992
60	0xbdaf00d1	-0.085450776
61	0xbe901720	-0.28142643
62	0xbe8c1530	-0.27359915
63	0x3e906949	0.28205326
64	0xbec5b7b0	-0.38616705
65	0xbc56f677	-0.013120285
66	0xbe9b998c	-0.30390584
67	0xbe6c9fa7	-0.23107778
68	0x3e4c5108	0.19952786
69	0xbcd3ccb1	-0.02585444
70	0xbe9fb69a	-0.31194
71	0xbce7ecfd	-0.028311247
72	0xbe960866	-0.29303282
73	0xbecab467	-0.3959076
74	0xbe3272e7	-0.17426644
75	0x3d5c3349	0.053759847
76	0xbbf773b5	-0.007551635
77	0x3f2a5fd3	0.66552466
78	0xbf4b9fb7	-0.7954058
79	0xbe6fa61f	-0.23403214
80	0x3bfa3a94	0.0076363776
81	0x3ed12683	0.40849695
82	0xbe43ff73	-0.19140415
83	0xbe1ed461	-0.15510704
84	0xbdda83c2	-0.10669662
85	0xbeb0ceac	-0.34532678
86	0xbf0d3ce4	-0.55171037
87	0xbec3a6cf	-0.38213202
88	0xbd62218d	-0.055207778
89	0xbe65bd9c	-0.22435611
90	0xbf1cd13d	-0.6125677
91	0xbe7a1271	-0.24421097
92	0xbeb63d48	-0.3559363
93	0xbe734513	-0.23756818
94	0xbe95f064	-0.29284966
95	0xbebcf8e0	-0.36908627
96	0x3d7630aa	0.060105003
97	0xbdbb0ade	-0.09132932
98	0xbedbb924	-0.4291469
99	0xbeeb5213	-0.45961055
100	0xbe9e3be1	-0.3090506
101	0xbf5df88c	-0.8670738
102	0xbe8b7a5c	-0.2724179
103	0xbeafac25	-0.34311023
104	0xbd339e11	-0.043851916
105	0x3e6398fb	0.22226326
106	0xbe96e004	-0.29467785
107	0xbd26651f	-0.04062378
108	0xbe6e8028	-0.23291075
109	0xbd8b55c2	-0.068034664
110	0x3ec1e29d	0.37868205
111	0xbec9737c	-0.3934592
112	0xbf34d334	-0.7063477
113	0x3cd2bb2d	0.025724018
114	0x3e0c9e54	0.13732272
115	0xbe996c9d	-0.29965678
116	0xbdafeaf6	-0.08589737
117	0xbee5c726	-0.448785
118	0x3e9c1c34	0.30490267
119	0xbe741945	-0.23837765
120	0x3d762c3b	0.060100775
121	0xbe65beeb	-0.2243611
122	0x3e0a54a7	0.13508855
123	0xbdcadb07	-0.099050574
124	0xbe8bc691	-0.27299932
125	0x3eb6a5f4	0.35673487
126	0xbe0f34a1	-0.1398492
127	0x3df1945e	0.11795877
128	0xbf4715e1	-0.7776776
129	0xbf120544	-0.57039285
130	0x3de14bc6	0.11000781
131	0xbc2cabd0	-0.01053901
132	0x3e02df23	0.12780432
133	0xbe5c4aa1	-0.21512844
134	0xbd5440b2	-0.05181951
135	0xbe9283b0	-0.28616095
136	0xbef4b630	-0.47795248
137	0xbf5946c1	-0.84873587
138	0xbebd11c0	-0.36927605
139	0xbf0e31ee	-0.55544937
140	0xbe0fcb7d	-0.14042468
141	0xbe5e8e27	-0.21733914
142	0x3e3a4c69	0.1819321
143	0xbe18bb06	-0.14915094
144	0xbe1b4c46	-0.15165815
145	0x3e99da0a	0.30049163
146	0xbdc82687	-0.097729735
147	0x3dfc33b7	0.12314551
148	0xbf1fd164	-0.6242888
149	0xbee8d51b	-0.45475087
150	0x3e2dfb89	0.16990484
151	0xbdddc7ec	-0.10829148
152	0xbedc8db5	-0.43076864
153	0xbdf2654c	-0.11835727
154	0xbde47a0f	-0.11156093
155	0x3d154b85	0.036448974
156	0x3df1070f	0.117689244
157	0xbf257726	-0.6463493
158	0xbd881a82	-0.06645681
159	0xbe7989cc	-0.24368972
160	0x3e66daa4	0.22544342
161	0xbe1d683a	-0.1537179
162	0xbeeea76f	-0.46612117
163	0xbe22281d	-0.15835615
164	0xbdc09916	-0.09404199
165	0xbd67619f	-0.056489583
166	0xbe1dc8a2	-0.15408567
167	0xbf0531b6	-0.5202898
168	0xbf5f7839	-0.8729282
169	0xbdfded26	-0.12398748
170	0xbd5a05b9	-0.053228114
171	0xbf23472c	-0.63780475
172	0xbf0072a1	-0.5017491
173	0xbd607d44	-0.054806963
174	0xbe70a682	-0.23501018
175	0xbea8b8e5	-0.32953563
176	0xbe35e4e3	-0.17763095
177	0xbed39cb4	-0.41330492
178	0xbe87fcbf	-0.26560017
179	0x3d84da4e	0.06486951
180	0xbe9c9486	-0.30582064
181	0xbeffc9af	-0.4995856
182	0xbda3d59c	-0.07999727
183	0x3e9532e7	0.29140398
184	0xbeaeced6	-0.34142178
185	0x3e4f3b98	0.20237577
186	0xbdcaa0ff	-0.09893989
187	0x3dcc5c6a	0.09978564
188	0xbebd3b9e	-0.36959547
189	0xbea71843	-0.32635698
190	0xbea8d689	-0.32976177
191	0xbe20b76b	-0.15694968
192	0x3f2aeba1	0.6676579
193	0x3d5a235a	0.05325637
194	0xbe357450	-0.17720151
195	0xbda8483f	-0.08216905
196	0xbd2e06fa	-0.042487122
197	0xbe0f3631	-0.13985516
198	0x3ec4ee89	0.38463238
199	0x3d91e1ee	0.07123171
200	0xbd39e4a2	-0.045384057
201	0x3d814f64	0.06313971
202	0xbf06ddd7	-0.5268225
203	0xbe8ea95e	-0.27863592
204	0xbe9534d4	-0.29141867
205	0xbf043605	-0.5164493
206	0xbe322d10	-0.17400002
207	0x3e4b0a7d	0.1982822
208	0xbe499594	-0.19685966
209	0xbe6f8a6a	-0.23392645
210	0x3c63e7d9	0.013910257
211	0xbeb5f211	-0.35536245
212	0xbe0ea2f4	-0.13929349
213	0xbe66bc15	-0.22532685
214	0xbf79dcf3	-0.97602767
215	0x3d8c5814	0.06852737
216	0xbdb8fb17	-0.090322666
217	0xbf26b516	-0.65120065
218	0xbf06c2b2	-0.5264083
219	0xbe7aad6f	-0.24480222
220	0xbe21da81	-0.15806009
221	0xbe048978	-0.12943065
222	0xbe32784e	-0.17428705
223	0x3ec6d109	0.38831356
224	0xbe48b622	-0.19600728
225	0xbeba01c5	-0.36329475
226	0xbf01f586	-0.50765264
227	0xbeb95d38	-0.36203933
228	0xbe695721	-0.22787143
229	0xbd86a771	-0.06574906
230	0xbf248a9a	-0.6427399
231	0x3d4c8442	0.04993082
232	0xbdac821c	-0.08423254
233	0xbefc3d97	-0.4926574
234	0xbd960415	-0.07324997
235	0x3e196464	0.14979702
236	0x3d92c956	0.07167308
237	0x3e2ed0dc	0.17071861
238	0xbca3ee4f	-0.020011095
239	0xbf015ea5	-0.5053504
240	0x3e341391	0.17585589
241	0x3d1d8d17	0.038464632
242	0xbeaa4f40	-0.33263588
243	0x3e9b846e	0.30374473
244	0x3e94f7fe	0.29095453
245	0xbe94e19f	-0.29078385
246	0xbdd01b3a	-0.10161443
247	0xbe3eefc0	-0.18646145
248	0xbf3b49fb	-0.7315976
249	0xbc214b76	-0.009844651
250	0x3e6bd2e6	0.2302967
251	0xbf3c8782	-0.7364427
252	0xbecb5b79	-0.39718226
253	0x3e93abea	0.28842098
254	0x3e07376d	0.13204737
255	0xbbce09d3	-0.006287792

linear_relu_stack.3.weight f4 [256, 256]
0	0x3ec1e389	0.37868908
1	0xbfc0dd64	-1.5067563
2	0xbf0c4e6c	-0.5480716
3	0x3e1eb675	0.1549929
4	0xbfef00e8	-1.8672152
5	0x3dfaef73	0.122527026
6	0x3f1d725f	0.6150264
7	0xbd4b3a95	-0.049616415
8	0xbc8a8574	-0.016909339
9	0xc01ed54d	-2.4817688
10	0x3f0882a4	0.5332434
11	0x3f938125	1.1523787
12	0xbf7fdf63	-0.99950236
13	0xbdcfed8d	-0.10152731
14	0x3ed399e9	0.41328362
15	0x3e085f5c	0.13317627
16	0xbe838a8f	-0.2569165
17	0x37d94b10	2.590337e-05
18	0x3dacb2c5	0.08432535
19	0xbefcad9e	-0.4935121
20	0x3e8a25c4	0.26981938
21	0xbe5d8ec5	-0.21636494
22	0xbf32b9a3	-0.6981451
23	0x3e46f37f	0.19428824
24	0xbf9a5b69	-1.2059146
25	0xbf2b195b	-0.66835564
26	0xbfcb38b0	-1.5876675
27	0xbe289c03	-0.16465764
28	0x3ec96293	0.3933302
29	0xc07b5c41	-3.9275057
30	0xbee0b4a9	-0.43887833
31	0x3ebc8e40	0.36827278
32	0x3e351e7c	0.1768741
33	0x3f0ce331	0.55034167
34	0x3e5b3068	0.21405184
35	0xbeb40f74	-0.3516804
36	0xbf233ea9	-0.63767487
37	0xbff31727	-1.899144
38	0xc0041ef8	-2.0643902
39	0xbdf411c2	-0.119174495
40	0x3d4530e5	0.048142333
41	0xbf07afa7	-0.530024
42	0xbeb1b5d6	-0.34709042
43	0x3e4ba9eb	0.19889037
44	0xbf473137	-0.7780947
45	0xbe8b5912	-0.27216393
46	0x3c50ea33	0.01275115
47	0xbfbd5bda	-1.4793656
48	0xbfd49f2a	-1.6611073
49	0x3e963d7c	0.29343784
50	0xbef037cf	-0.4691758
51	0xbf227385	-0.6345752
52	0xbd82aa3a	-0.063801244
53	0xbf19b8d9	-0.6004768
54	0xbf83e427	-1.0304002
55	0x3e472fb0	0.19451785
56	0xbffb05a1	-1.9611093
57	0x3eaa2432	0.3323074
58	0x3eef167c	0.46696842
59	0xc004a3ce	-2.0724978
60	0x3df1ec9c	0.11812708
61	0x3f10e518	0.5659957
62	0x3ece5677	0.40300342
63	0xbe87fe05	-0.2656099
64	0x3ee905db	0.4551228
65	0x3e2bb42f	0.16767953
66	0x3d98dd07	0.074640326
67	0x3ecc0232	0.39845425
68	0x3e881ff8	0.2658689
69	0xbe120d72	-0.14262941
70	0x3ea3549a	0.31900483
71	0x3e6173a2	0.22016767
72	0x3ea4904b	0.32141337
73	0x3f2ad0a5	0.66724616
74	0x3e635fed	0.22204562
75	0x3ee66bc2	0.45004088
76	0xbfba64f0	-1.4562054
77	0x3fa0e3d9	1.2569534
78	0xbdeee6e7	-0.11665135
79	0xbecb9d1b	-0.397683
80	0x3ca6cc7e	0.020361181
81	0xbd198559	-0.037480686
82	0xbe44491b	-0.19168513
83	0xbf540731	-0.82823473
84	0xbeda2ead	-0.42613736
85	0x3f205254	0.6262562
86	0x3e041fb1	0.12902714
87	0xbf906a98	-1.128253
88	0x3ee7f47b	0.4530371
89	0x3f00ba34	0.50284123
90	0xbe2d0b31	-0.168988
91	0x3e7f47f9	0.24929799
92	0x3db46d14	0.088098675
93	0x3ccc561e	0.024943408
94	0xbf5e0efb	-0.8674161
95	0xbffd67f8	-1.9797354
96	0x3f613189	0.8796621
97	0xbfcc6c8a	-1.5970623
98	0x3d88a3d7	0.06671875
99	0x3e9d941e	0.30777067
100	0x3eb38ee0	0.35069942
101	0x3e8199b1	0.2531257
102	0x3f1b64d4	0.60700727
103	0xbf83cbde	-1.029659
104	0xbf37f591	-0.7185908
105	0x3ebd4f03	0.36974344
106	0xbe146eb9	-0.14495362
107	0x3edf71c9	0.436415
108	0x3d2574dc	0.04039465
109	0x3f36e721	0.71446425
110	0xbe0cc799	-0.13748015
111	0xbe8c6f15	-0.274285
112	0x3c5b2df2	0.013377653
113	0xbeab6987	-0.33478948
114	0xbe07c86d	-0.1326005
115	0x3e79b431	0.24385144
116	0xbf040fd8	-0.51586676
117	0xbe0708bd	-0.13186927
118	0x3e76ca58	0.24100626
119	0x3e8b71f9	0.27235392
120	0x3f8756a2	1.0573313
121	0x3e032778	0.12808025
122	0x3e1d3085	0.1535054
123	0xbeb05311	-0.34438375
124	0x3e9870d8	0.29773593
125	0x3e5cd0af	0.21563981
126	0xbfe140ee	-1.759794
127	0x3ec67dae	0.3876776
128	0xbfacf469	-1.3512088
129	0x3e569262	0.20954278
130	0xbf7ef394	-0.9959042
131	0xbfbc0f32	-1.4692137
132	0x3eced6f1	0.40398362
133	0x3d8f2754	0.06989923
134	0x3dfe5682	0.12418844
135	0xbf8f0fba	-1.1176674
136	0x3e386e15	0.18010743
137	0x3e135e1e	0.14391372
138	0xbed7fadd	-0.4218358
139	0x3ead5447	0.3385336
140	0xc0091e8f	-2.1424901
141	0xbeb103ad	-0.34573117
142	0xbf784ee8	-0.969954
143	0xc004ceeb	-2.0751293
144	0x3f9adb98	1.2098265
145	0x3ee77cac	0.45212305
146	0x3e6f44d8	0.23366106
147	0xc0581416	-3.376226
148	0x3f7982c2	0.97465146
149	0x3e8b2dee	0.2718348
150	0x3fadc115	1.3574549
151	0x3dc3f44c	0.0956808
152	0x3e2113f9	0.15730275
153	0xbedb213b	-0.4279879
154	0xc01fabe2	-2.494866
155	0xbfa02b53	-1.2513222
156	0xc018be1a	-2.3866029
157	0x3d0a0033	0.033691596
158	0xc019d2a8	-2.4034824
159	0xbda6de33	-0.0814785
160	0xbf48136d	-0.7815464
161	0xbf4a5c10	-0.79046726
162	0xbf3c3ed0	-0.73533344
163	0x3fbd48d7	1.4787854
164	0xbffd1df5	-1.9774767
165	0xbfea64f1	-1.8312055
166	0xbe50e183	-0.20398526
167	0x3e0699cd	0.13144608
168	0x3e86f202	0.26356512
169	0x3e2b66b7	0.16738401
170	0xbf1dc099	-0.61622006
171	0xbe214e49	-0.1575252
172	0x3d214241	0.039369825
173	0xbe0a83df	-0.13526867
174	0xbe126dca	-0.14299694
175	0xbfa7cb2a	-1.3108876
176	0x3de7323a	0.11288877
177	0x3f2a7954	0.6659138
178	0xbf9d7459	-1.2301131
179	0x3e2b950f	0.1675608
180	0xbdbb92ac	-0.09158835
181	0xbf58e008	-0.84716845
182	0xbe7ccbb0	-0.24687076
183	0x3e8ab6ff	0.2709274
184	0x3f9d7525	1.2301375
185	0xbda8a547	-0.08234649
186	0xbf3fb69d	-0.7488802
187	0xbe58f53e	-0.21187302
188	0xbc10670d	-0.008813632
189	0x3ee19eaf	0.44066378
190	0x3e10f19f	0.14154671
191	0x3f0b34c2	0.5437738
192	0xbdb35316	-0.08756082
193	0xbe672a2c	-0.22574681
194	0xbd451086	-0.04811146
195	0x3df52867	0.11970597
196	0xbe2c133b	-0.16804211
197	0xbe43e341	-0.19129659
198	0xbd852c87	-0.065026335
199	0x3dac9b4e	0.084280595
200	0xbf16c5c3	-0.5889551
201	0xbfa8b8a9	-1.3181354
202	0xc018741c	-2.3820868
203	0x3e8b4f3d	0.27208892
204	0x3d831067	0.06399613
205	0x3ec17bf0	0.3778987
206	0xbfc06633	-1.5031189
207	0x3f925744	1.1432881
208	0x3f2e428c	0.6807029
209	0xbea0d86e	-0.31415123
210	0xbfc76596	-1.5577877
211	0xbf1e9a0d	-0.6195381
212	0xbf55a363	-0.83452433
213	0xbe1bdda3	-0.15221266
214	0xbf4b2052	-0.7934619
215	0xbdb6abaa	-0.08919461
216	0xbd4e65f2	-0.05039019
217	0x3e38f973	0.18063907
218	0x3f23a7eb	0.639281
219	0x3fcf9541	1.6217424
220	0xbe5d7bf0	-0.2162931
221	0xc004e0ec	-2.0762281
222	0xbccd1444	-0.025034077
223	0x3e667e5f	0.22509144
224	0x3d9a3765	0.07530097
225	0x3f144f7a	0.5793377
226	0xbf396194	-0.7241452
227	0xbfd78da3	-1.6840099
228	0x3e0eee8e	0.13958189
229	0x3d6ab378	0.05730006
230	0xbee54916	-0.44782323
231	0x3f08d7b7	0.53454155
232	0xbeb8ed25	-0.36118427
233	0x3ceb28e5	0.028706023
234	0x3e0717b2	0.13192633
235	0xbf25c44b	-0.64752644
236	0xbf7b348c	-0.98127055
237	0xbf4c4964	-0.79799485
238	0x3ed4ef71	0.4158893
239	0xbeed04d0	-0.46292734
240	0xc0703142	-3.7530065
241	0xbd54b98b	-0.05193476
242	0xc001a467	-2.0256593
243	0xbffe9be7	-1.9891328
244	0xbec4afac	-0.38415277
245	0x3e944a60	0.28962994
246	0xbf42b2b7	-0.7605395
247	0xbfc21071	-1.5161268
248	0x3ec516ce	0.3849396
249	0xbf10412e	-0.56349456
250	0xbff6d7d3	-1.9284614
251	0x3d9b64dd	0.075875975
252	0x3d9587fb	0.07301327
253	0xbf323456	-0.6961111
254	0xbee4671e	-0.44609922
255	0x3e04a45a	0.1295332

linear_relu_stack.3.bias f4 [256]
0	0xbf2fc0bb	-0.6865346
1	0xc03f65ac	-2.9905806
2	0x403f36f1	2.9877284
3	0xc05d1c2f	-3.4548452
4	0x408a8619	4.3288693
5	0x40735241	3.8018954
6	0xbf9d4be7	-1.2288789
7	0x40766951	3.850178
8	0x40721d3d	3.7830346
9	0x3ee0c35f	0.43899056
10	0xc07daa47	-3.963518
11	0x409743dd	4.727034
12	0xbf5954e7	-0.84895176
13	0xc012bdaa	-2.2928262
14	0x407a0f2e	3.9071765
15	0x409bc736	4.8680677
16	0xbfb4921d	-1.410709
17	0x407cf905	3.952699
18	0x405579bf	3.3355558
19	0x3fa13254	1.2593484
20	0xbf0fc276	-0.561561
21	0x407b1ca6	3.9236236
22	0x3e03c16a	0.1286675
23	0x407a920b	3.9151638
24	0xbfc00d75	-1.5004107
25	0x4076e7bc	3.857894
26	0x408e02c7	4.437839
27	0x40792960	3.8931503
28	0x40139cf3	2.3064544
29	0x407d41a7	3.957132
30	0x407f7485	3.9914868
31	0x407f93c9	3.993395
32	0x4056b413	3.3547409
33	0x40783dfa	3.8787827
34	0xc05fe5f8	-3.4984112
35	0x4084d9ef	4.151603
36	0x407b1bac	3.923564
37	0xbfa15a21	-1.260563
38	0x407b1844	3.923356
39	0x407e0420	3.9690018
40	0x407e42fe	3.9728389
41	0x4079bd0b	3.9021633
42	0x4072fa73	3.7965362
43	0xbe98284f	-0.29718253
44	0x407b5c60	3.9275131
45	0x40787f48	3.8827686
46	0x40a10311	5.0316243
47	0xc0940038	-4.6250267
48	0x400b1892	2.1733747
49	0x407dcd5d	3.9656594
50	0x3fa92f6b	1.3217596
51	0x40734ce3	3.8015678
52	0x407ec1c5	3.9805768
53	0x4077d49d	3.872352
54	0x4074900c	3.821292
55	0xbfd50b92	-1.6644156
56	0x401616c5	2.3451397
57	0xc052ab3a	-3.2917008
58	0x408981d4	4.297098
59	0x3f5b08d5	0.8556035
60	0xbff1a74a	-1.8879178
61	0x40804e0c	4.009527
62	0x3f12e2c1	0.5737725
63	0xc024ac71	-2.573025
64	0x4082ebd0	4.0912857
65	0x3fa0037b	1.2501062
66	0x40344383	2.8166206
67	0x409561df	4.668197
68	0xbfdda583	-1.7316135
69	0x3fdbf913	1.7185386
70	0xc042b371	-3.0422022
71	0xc082b8a2	-4.085038
72	0xbfb9fda7	-1.4530534
73	0x407871d2	3.881947
74	0x3ff72f74	1.9311357
75	0x407395fc	3.8060293
76	0x40564af2	3.3483243
77	0x407c9149	3.9463675
78	0xbfef0864	-1.8674436
79	0x4074c97c	3.8247976
80	0x407ba26f	3.9317892
81	0x40794993	3.8951156
82	0x407ec871	3.980984
83	0x407bf969	3.9370978
84	0xc03b4bec	-2.926509
85	0x4013be14	2.3084764
86	0x400cdf50	2.20113
87	0x407a8946	3.9146285
88	0x407d4cbe	3.957809
89	0x40769576	3.8528724
90	0xc02f028e	-2.734531
91	0x406741fc	3.6134024
92	0x40985553	4.7604156
93	0xc0963e8e	-4.695136
94	0xc071cc98	-3.7781124
95	0x40a667e9	5.2001843
96	0xc06b3a2e	-3.675426
97	0x407a116a	3.9073129
98	0x4079ab58	3.901083
99	0x407c9f64	3.9472284
100	0x40771079	3.8603804
101	0x407f9310	3.993351
102	0x407853de	3.8801188
103	0x40766415	3.8498585
104	0xbf93e6b6	-1.1554782
105	0x40813407	4.037601
106	0x40a2a2e1	5.0823827
107	0x407dca4c	3.9654722
108	0x3fa2952f	1.2701777
109	0xbe25bc9e	-0.16185233
110	0x407c704a	3.9443536
111	0x408a4913	4.32142
112	0x40766ffc	3.850585
113	0xc038b351	-2.8859446
114	0x407156ff	3.7709348
115	0x40686173	3.6309478
116	0x4079f82e	3.9057727
117	0x407c1ba2	3.9391866
118	0x4079c821	3.90284
119	0x407cc0c6	3.949266
120	0x4076abc7	3.8542345
121	0x3fc357d1	1.5261174
122	0x406ffdf8	3.749876
123	0xbe62ebe8	-0.22160304
124	0x407b729e	3.9288707
125	0x407b1cbd	3.923629
126	0xc06a6616	-3.6624808
127	0xc02ae9c4	-2.670518
128	0x407bf55c	3.9368505
129	0xbe45a03f	-0.1929941
130	0xc051c591	-3.2776835
131	0xbf2fcef2	-0.6867515
132	0x407b20ea	3.923884
133	0x40762048	3.8457203
134	0x407d3533	3.956372
135	0x407bb1a4	3.9327173
136	0x3e952b3e	0.29134554
137	0x407310e9	3.797907
138	0x408252d2	4.07261
139	0x40757e14	3.8358202
140	0xc02823d2	-2.6271863
141	0x407d007e	3.953155
142	0x407d6490	3.9592628
143	0x400fffae	2.2499804
144	0x407b0221	3.922005
145	0x407d7246	3.9600997
146	0x3fcd8044	1.6054769
147	0x4070ad94	3.7605944
148	0x407b6bb8	3.9284496
149	0x407d0129	3.9531958
150	0x407b5ae2	3.927422
151	0x4074584e	3.8178897
152	0x4075ba52	3.839497
153	0x4077af48	3.8700733
154	0x407cd458	3.9504604
155	0x4073f213	3.81165
156	0xc0224869	-2.5356696
157	0x40757c1e	3.8357005
158	0xc07b87ed	-3.9301713
159	0xc063b31b	-3.5578067
160	0x40768dba	3.8524003
161	0xc08ae4ce	-4.3404303
162	0x4036f788	2.858858
163	0x407352c5	3.8019269
164	0x407c99dc	3.9468908
165	0xbe401ea8	-0.18761694
166	0x4080f469	4.029835
167	0xbe3f6fde	-0.18695018
168	0x407c482a	3.9419045
169	0x40981a40	4.7532043
170	0x40805570	4.0104294
171	0x407598bc	3.8374472
172	0xc03476fe	-2.8197627
173	0xc03056a9	-2.7552893
174	0x4078464f	3.8792913
175	0x40272f98	2.61228
176	0xbe2fc5af	-0.17165254
177	0xbfeaaa60	-1.8333244
178	0x407fd280	3.997223
179	0xc0360b97	-2.8444574
180	0x407942db	3.8947055
181	0x3f962cd6	1.1732433
182	0x40791327	3.891794
183	0x407c7e9d	3.9452279
184	0x408fb9cd	4.4914308
185	0xc00516a5	-2.079507
186	0x407974cf	3.8977544
187	0xbe3018d4	-0.17196971
188	0x3fb4dccb	1.4129881
189	0x407ab68b	3.9173915
190	0x3fa93fff	1.3222655
191	0x407ef18d	3.983493
192	0xc08a1232	-4.314721
193	0x407bfb8c	3.9372282
194	0xc03ee8c2	-2.9829564
195	0x407a0e43	3.9071205
196	0x40a39931	5.11245
197	0xc0868680	-4.2039185
198	0x40796357	3.8966882
199	0x4085c59d	4.1803727
200	0x3f81d163	1.0142025
201	0x40750eac	3.8290205
202	0x40765f9e	3.849586
203	0x407f5917	3.9898126
204	0x4076f9ad	3.858989
205	0xc0373c70	-2.8630638
206	0x3f4d7d6e	0.80269516
207	0xc00bf4af	-2.1868093
208	0x4051f91f	3.2808301
209	0x4073ab2e	3.807323
210	0x4079450e	3.8948398
211	0xbf810579	-1.0079795
212	0xc0784045	-3.8789227
213	0x407a16ce	3.907642
214	0x4079b73b	3.9018085
215	0x40742e3c	3.815322
216	0x407d70d0	3.9600105
217	0xc00bc576	-2.183927
218	0x3f03f180	0.51540375
219	0x405adf28	3.4198704
220	0x4074fd5f	3.8279645
221	0x4075ff06	3.8436904
222	0x407a38d6	3.909719
223	0xc0651acd	-3.5797608
224	0x407b44dc	3.9260778
225	0x4073655e	3.803062
226	0x407e2ec7	3.971605
227	0xc03c8ff8	-2.9462872
228	0xbfaaf425	-1.3355757
229	0xc05ac088	-3.4180012
230	0x4079b299	3.9015257
231	0x4090f0cf	4.5293956
232	0xbf0bed05	-0.5465854
233	0x40795aa3	3.896157
234	0x4073aa83	3.8072822
235	0x4076cd94	3.8562975
236	0x407516fe	3.8295283
237	0x4076a348	3.853716
238	0x4076a6a1	3.8539202
239	0x4071ca29	3.7779639
240	0x3f8375b0	1.027029
241	0xc009384b	-2.1440609
242	0x407c7902	3.9448857
243	0xc065acaf	-3.5886648
244	0x40777ca5	3.8669827
245	0x40741684	3.8138742
246	0x407df1f8	3.9678936
247	0xc03fa6f8	-2.994566
248	0x40793755	3.8940022
249	0xc00673a3	-2.100808
250	0x40776176	3.8653235
251	0xc01ba147	-2.4317186
252	0x4073befb	3.8085315
253	0xc068a67f	-3.635162
254	0x407d385d	3.9565651
255	0x407f3132	3.9873776

linear_relu_stack.6.weight f4 [1, 256]
0	0xc00d7b19	-2.2106383
1	0xbff04910	-1.8772297
2	0x402da75b	2.7133396
3	0xbff54397	-1.9161252
4	0x3eddbf7c	0.43310153
5	0x3e6679cb	0.22507398
6	0xbfa74600	-1.3068237
7	0x3e67e569	0.22646107
8	0x3e7d234d	0.24720497
9	0xc0177a7f	-2.3668516
10	0xc0211dec	-2.5174513
11	0x3f40e21d	0.7534502
12	0xc0020dab	-2.0320842
13	0xbfe66ea5	-1.8002516
14	0x3e7087c8	0.23489296
15	0x3fa4a149	1.286172
16	0xbfd241a6	-1.6426284
17	0x3e78e039	0.24304284
18	0x3ff2020f	1.8906878
19	0xc0150c87	-2.3288896
20	0xc03fce03	-2.996949
21	0x3e602dc6	0.21892461
22	0xc0215561	-2.520836
23	0x3e6c1309	0.23054136
24	0xc00c1614	-2.1888475
25	0x3e7dbf4a	0.24780002
26	0x3fa99a5b	1.325023
27	0x3e851b09	0.2599719
28	0xc02737c2	-2.6127782
29	0x3e807b6e	0.2509417
30	0x3e74b0f7	0.23895632
31	0x3e73dd57	0.23814903
32	0x4001a112	2.025456
33	0x3e7d453d	0.24733444
34	0xc02606b0	-2.5941582
35	0x3ed67000	0.41882324
36	0x3e629b11	0.22129466
37	0xc01f2cd7	-2.4871118
38	0x3e6ef754	0.23336536
39	0x3e70c196	0.23511347
40	0x3e72b96a	0.23703542
41	0x3e627a13	0.2211688
42	0x3e72ef2c	0.2372405
43	0xbc80c3da	-0.01571839
44	0x3e7092b0	0.23493457
45	0x3e5965c8	0.21230233
46	0x3fa90ef8	1.3207693
47	0xc015f575	-2.3431065
48	0xc026b4d1	-2.6047862
49	0x3e6932d4	0.22773296
50	0xc004ae95	-2.0731556
51	0x3e7e7c82	0.24852183
52	0x3e57a8e6	0.21060523
53	0x3e78825a	0.24268475
54	0x3e76df1a	0.24108544
55	0xc031354a	-2.7688775
56	0xc0294467	-2.6448
57	0xc00e8a27	-2.2271821
58	0x3f80f9f3	1.0076278
59	0xbfefe8b5	-1.8742892
60	0xbfd6d87f	-1.6784819
61	0x3e70b4ce	0.23506472
62	0xc00ee55d	-2.2327492
63	0xc00bdfe1	-2.1855395
64	0x3fabf825	1.3435103
65	0xc03b7c6b	-2.9294689
66	0xc031e448	-2.7795582
67	0x3f7126e9	0.942
68	0xc035e3c1	-2.842026
69	0xc04acfd5	-3.168935
70	0xc0099ede	-2.1503215
71	0xc00a5bfa	-2.1618638
72	0xbff4e6cd	-1.9132935
73	0x3e79ceda	0.24395314
74	0xc0300335	-2.7501957
75	0x3e659553	0.22420244
76	0x3e63c0f9	0.22241582
77	0x3e6cf39f	0.23139809
78	0xc02aff2a	-2.671824
79	0x3e8642eb	0.2622293
80	0x3e7562fe	0.23963544
81	0x3e762b8d	0.24040051
82	0x3e74111d	0.23834653
83	0x3e6a93bf	0.22907923
84	0xbfb82a89	-1.4387981
85	0xc02bcc49	-2.6843436
86	0xc02564db	-2.5842807
87	0x3e672fb6	0.22576794
88	0x3e7be6d7	0.24599777
89	0x3e78a3c2	0.24281219
90	0xc018de45	-2.3885663
91	0x3e4efced	0.20213671
92	0x3fa3acf1	1.2787153
93	0xc02952b5	-2.645673
94	0xc01317f2	-2.2983365
95	0x3f8a6173	1.0810989
96	0xbfca5e76	-1.5810077
97	0x3e7a49b1	0.24442174
98	0x3e74508c	0.23858851
99	0x3e72fe92	0.23729923
100	0x3e7a8eff	0.24468611
101	0x3e764d5b	0.24052946
102	0x3e83b536	0.2572419
103	0x3e66ecb5	0.22551234
104	0xbfe58643	-1.7931598
105	0x3e78801c	0.2426762
106	0x3f57bc67	0.84271854
107	0x3e75c2d1	0.24000098
108	0xbfc6c75d	-1.5529591
109	0xbe771818	-0.24130285
110	0x3e6d62a3	0.23182158
111	0x3efa7eb6	0.48924798
112	0x3e66f9dd	0.22556253
113	0xbfdbe4a1	-1.7179147
114	0x3e67fdde	0.22655436
115	0x3e627255	0.22113927
116	0x3e850723	0.25982007
117	0x3e7b1e38	0.24523246
118	0x3e824651	0.25444272
119	0x3e824736	0.25444955
120	0x3e639499	0.22224654
121	0xc0253335	-2.5812504
122	0x3e6a8e50	0.2290585
123	0x3d1a4b34	0.037669376
124	0x3e5f364e	0.2179806
125	0x3e6427d4	0.22280818
126	0xc006913c	-2.1026144
127	0xc01a5453	-2.4113967
128	0x3e758588	0.2397672
129	0xc0233565	-2.550134
130	0xc00246a8	-2.0355625
131	0xbff2cfdf	-1.8969687
132	0x3e79a944	0.24380976
133	0x3e88bd24	0.26706803
134	0x3e6d2aa6	0.231608
135	0x3e67d66b	0.22640388
136	0xbfb00d69	-1.3754092
137	0x3e80e7e3	0.25176916
138	0x3eeb7699	0.4598892
139	0x3e8b23ac	0.27175653
140	0xbf9d1ac4	-1.2273793
141	0x3e728155	0.23682149
142	0x3e517aa8	0.20456946
143	0xc03d026a	-2.9532723
144	0x3e624d09	0.22099699
145	0x3e87b0e2	0.26502138
146	0xc01c31d9	-2.4405425
147	0x3e8634fe	0.26212305
148	0x3e8133ca	0.25234824
149	0x3e817191	0.25281957
150	0x3e82a165	0.2551376
151	0x3e742d85	0.2384549
152	0x3e765677	0.24056421
153	0x3e6a0a28	0.22855437
154	0x3e87ea1c	0.265458
155	0x3e7bb725	0.24581583
156	0xbfd987cb	-1.6994566
157	0x3e7258ad	0.2366664
158	0xc0235e9d	-2.5526497
159	0xbfd553de	-1.6666219
160	0x3e6965ff	0.22792815
161	0xc00c3250	-2.1905708
162	0xc00feec1	-2.2489474
163	0x3e76a034	0.2408455
164	0x3e60941d	0.219315
165	0x3c7973ad	0.015225333
166	0x3f9a6011	1.2060567
167	0x3c8fc3b7	0.017549379
168	0x3e5e7459	0.2172407
169	0x3f555183	0.833275
170	0x3e69ddbf	0.22838496
171	0x3e796f60	0.24358892
172	0xbfe540fd	-1.7910458
173	0xc00c3479	-2.1907027
174	0x3e7bb7c5	0.24581821
175	0xc00a050b	-2.1565578
176	0xbc93867a	-0.01800846
177	0xc00bb650	-2.1830025
178	0x3e726ef3	0.23675136
179	0xc0342c70	-2.8152122
180	0x3e6b4153	0.22974138
181	0xc0265cbb	-2.5994098
182	0x3e69a31e	0.2281613
183	0x3e765520	0.2405591
184	0x3f7d8020	0.9902363
185	0xbfb9715d	-1.4487721
186	0x3e5c2822	0.21499684
187	0xbfc6157f	-1.547531
188	0xc043896f	-3.0552633
189	0x3e79a860	0.24380636
190	0xc00a26b0	-2.1586113
191	0x3e6f4214	0.2336505
192	0xc02a4479	-2.6604292
193	0x3e6ea1ba	0.23303881
194	0xc00bd972	-2.1851468
195	0x3e6f0765	0.23342665
196	0x3f80f806	1.0075691
197	0xc0228c01	-2.5397952
198	0x3e74001f	0.23828171
199	0x3ef84e4a	0.4849723
200	0xc016d717	-2.356878
201	0x3e84d606	0.25944537
202	0x3e6ef464	0.23335415
203	0x3e4fd69f	0.20296715
204	0x3e76098c	0.2402708
205	0xbfe0e643	-1.757027
206	0xc01e5156	-2.4737144
207	0xc0167331	-2.3507807
208	0x4003a2aa	2.0568032
209	0x3e618f7b	0.2202739
210	0x3e64ebdf	0.22355603
211	0xbfc77e25	-1.5585371
212	0xc00e9afe	-2.22821
213	0x3e782a42	0.2423487
214	0x3e6ac07b	0.22924988
215	0x3e583e5d	0.2111754
216	0x3e72ac0f	0.23698448
217	0xbfeec00e	-1.865236
218	0xbfca2e44	-1.5795369
219	0x3e8a6f83	0.27038202
220	0x3e7e52c5	0.24836262
221	0x3e805f9a	0.25072938
222	0x3e7beeca	0.2460281
223	0xc0075108	-2.1143208
224	0x3e6e60d7	0.23279129
225	0x3e8cdbd8	0.27511477
226	0x3e7f7ccc	0.2494995
227	0xbfe4f200	-1.7886353
228	0xbfc9c554	-1.5763345
229	0xbfd43c72	-1.6580946
230	0x3e69b22c	0.22821873
231	0x3f106419	0.56402737
232	0xc0267f9d	-2.601539
233	0x3e8078b0	0.25092077
234	0x3e7b2c51	0.24528624
235	0x3e6f5e22	0.23375753
236	0x3e77ae83	0.24187665
237	0x3e9078a8	0.28217053
238	0x3e8d01f4	0.27540553
239	0x3e74d074	0.23907644
240	0xc012d124	-2.294015
241	0xbf778127	-0.96681446
242	0x3e5ad518	0.21370351
243	0xc0361bb6	-2.8454413
244	0x3e6536c5	0.22384174
245	0x3e85500f	0.26037642
246	0x3e5be06d	0.2147233
247	0xc0270916	-2.6099296
248	0x3e73d93f	0.23813342
249	0xbf9a7635	-1.2067324
250	0x3e6e68f6	0.23282227
251	0xc01c9574	-2.446622
252	0x3e692866	0.22769317
253	0xc03b3176	-2.9248939
254	0x3e8a9040	0.2706318
255	0x3e70b807	0.23507701
